first_quantizations/models/original_model.pth (torch, 222862 bytes, 6 tensors)

fc1.weight f4 [64, 784]
000000 03 e8 0c 3d f5 be 0c bd 56 e4 0b 3d 13 66 34 3b
       0.03440095 -0.0343618 0.034153305 0.0027526661
000010 63 99 98 3c 0e bb 5c bc ae bc ca 3c ee f9 c2 3b
       0.018627828 -0.013472332 0.024748173 0.005950204
000020 bc 4f 4f bc 6c ef f1 3c 66 58 05 bd 6e 1a e1 bb
       -0.0126532875 0.02953311 -0.032555006 -0.0068696057
000030 ca 17 08 bd 6f 2f 1b bd fc a4 bf bc ad 9f f1 3c
       -0.033225812 -0.037887033 -0.0233941 0.029495085
000040 be 67 a1 3c f3 e7 99 3c 1e e1 a7 3c 76 19 06 3d
       0.019702788 0.01878736 0.020493086 0.032739125
000050 50 16 a3 bc 21 71 6e 3c ce 01 02 bc 4e f3 c6 bc
       -0.0199081 0.014553339 -0.007935001 -0.024285939
000060 7b 1e 10 3d 13 32 b2 bc 57 fe bf 3c ea 57 02 bd
       0.03518532 -0.021752393 0.023436708 -0.031822123
000070 5c 46 93 3c c5 3c 52 3c f6 34 00 bd a5 4b 30 bc
       0.017977886 0.012831871 -0.031300507 -0.010760223
000080 1a 7d ff 3c e8 92 62 bd 28 36 b8 bd 7b 0e 48 bd
       0.031187583 -0.055315882 -0.089947045 -0.048841935
000090 04 22 c3 bd 38 54 9d bd 4b 41 7e bd 0e 9f e3 bb
       -0.09527972 -0.07682079 -0.062073987 -0.006946451
0000a0 4d 99 5d bd 0c 40 19 bc da 2b c2 3c ba 6b 8b 3d
       -0.054101277 -0.009353649 0.02370255 0.068076566
0000b0 05 c2 b4 3d c3 ec 95 3d 15 f5 42 be 38 f8 ca bd
       0.08826069 0.07320549 -0.19038804 -0.09910625
0000c0 ae c1 ff bd 7b 8b fc bc 57 9d 3b bd 42 ce ac bd
       -0.12488113 -0.030828228 -0.045804348 -0.08437778
0000d0 fa d2 93 3c 78 89 fe bb 45 7e 22 bc aa 1c ca 3c
       0.018044937 -0.0077678524 -0.0099178 0.024671871
0000e0 65 9b ba 3c ac 65 ea 3c 42 a4 35 bd 3d 77 17 3e
       0.022779176 0.028612934 -0.0443461 0.1479158
0000f0 91 98 21 3e 0b 8f 6b bd 14 e7 41 bd 77 99 06 bd
       0.15780856 -0.057509463 -0.047339514 -0.0328612
000100 df 07 1e be fc a8 22 be 2a 46 6f be 5c 10 84 be
       -0.1543269 -0.15884775 -0.23366609 -0.2579373
000110 e6 65 88 be a5 41 1a be c8 6b 08 be 11 b7 95 be
       -0.26640242 -0.15064104 -0.13322365 -0.2924123
000120 a2 f1 c4 bd f2 0c 18 be f3 56 82 be 65 d4 80 be
       -0.096164 -0.14848688 -0.25456962 -0.25162044
000130 20 ec a4 be 2d 2f a3 be 2b 3e 17 be 67 1a 08 be
       -0.322114 -0.3187193 -0.14769809 -0.13291322
000140 2a b4 be bc 0a a1 7b bd cf 2a 0a 3d 1d 0e 07 bd
       -0.023279268 -0.061432876 0.03373223 -0.032972444
000150 be 80 0a bd 5e a2 04 3d ce 28 22 bc 57 eb 00 3e
       -0.033814184 0.032381408 -0.009897424 0.12589775
000160 a3 da 33 be 2a dc 34 be e9 bc 96 be 1a 22 93 be
       -0.17563872 -0.17662111 -0.29441002 -0.28736955
000170 aa 4e 44 be 89 5a 75 be c3 cb cf bd fb f3 4f be
       -0.19170633 -0.23960318 -0.10146286 -0.20307915
000180 e4 42 13 be eb 1c 5a be 80 a9 84 3c e9 af a6 3d
       -0.14380985 -0.21300094 0.016194105 0.08139021
000190 22 df 1b 3d 09 01 04 bc 6f 06 51 be 67 ce 2f be
       0.038054593 -0.008056887 -0.2041261 -0.1716858
0001a0 a1 f2 6f 3d 0b 94 9b bd 6f 6b cf bd 50 02 e9 bd
       0.058581 -0.07596596 -0.10127913 -0.11377394
0001b0 a3 56 9b bd 13 56 45 3e 27 f9 1a 3e ec 3c fc 3c
       -0.07584884 0.19271116 0.15134107 0.030790769
0001c0 a7 7a 0b bd 92 e0 9c bc 41 b8 3d be 5f 8e 62 bd
       -0.034052517 -0.019150052 -0.18527319 -0.055311557
0001d0 fd 82 d8 bd 41 66 28 be e8 b4 a4 be 1b 07 6a be
       -0.10571859 -0.16445257 -0.3216927 -0.22854273
0001e0 3f 14 82 be f9 f0 6c be e9 63 45 be 64 8b d0 bd
       -0.25406072 -0.23138799 -0.19276394 -0.10182837
0001f0 bd ba cc 3b 10 27 45 bc e7 d5 2d bd 7d 86 6a 3d
       0.006247847 -0.012033239 -0.04244032 0.057257164
000200 f2 12 2c bd 08 d6 87 3d e8 d3 a2 3c ca f2 a2 bd
       -0.042010255 0.0663262 0.019876435 -0.079564646
000210 50 fd e7 bc bd d5 d6 3c 06 e8 25 3d 6b 60 84 bd
       -0.028319031 0.026224965 0.040504478 -0.06463703
000220 69 16 92 3c 36 f2 39 3e 76 f5 4a 3e 9b 4b c3 3b
       0.017832952 0.18158802 0.19820198 0.0059599406
000230 e5 f2 ba bb 62 ea 0a 3d 45 88 80 be 7e 86 59 be
       -0.005705225 0.03391493 -0.25103965 -0.21242711
000240 02 b6 95 bd 64 d4 cf 3d b0 e4 e0 3d e3 29 2e 3c
       -0.07310106 0.10147932 0.10981119 0.010630104
000250 0d 32 42 3d ab d7 69 3d bd 5b b6 bc ec 31 6a 3c
       0.047411013 0.057090443 -0.022260541 0.014294129
000260 ce a6 4c 3c f5 6b bb 3d 9e a3 0f 3d 83 7e 96 bc
       0.012490941 0.091514505 0.035068147 -0.018370872
000270 3c d8 bd bd c8 b9 0c 3d 09 de 18 3d 36 da 27 bd
       -0.09269759 0.034356862 0.037321124 -0.040979587
000280 86 62 e7 bd cf 5f 01 be 66 3a 55 3d 6c 01 4d bd
       -0.11298089 -0.12634204 0.052057646 -0.050050184
000290 1a ca ae bd 49 73 17 3d 65 f5 0e 3e 39 d9 10 be
       -0.085346416 0.03697518 0.13960798 -0.14145364
0002a0 8e 9b 4d 3c 23 1c a7 bd 0d 22 81 3d 64 cc 6b 3d
       0.012549294 -0.081596635 0.06305323 0.05756797
0002b0 ae 0f 60 bd 42 55 a7 3d 36 b9 23 bd 62 9a fb bd
       -0.054702453 0.081705585 -0.039971553 -0.122853056
0002c0 55 3b c3 bc a7 57 8e bd 53 cf 40 3d 25 5b 6a 3d
       -0.023832003 -0.06950312 0.04707272 0.05721583
0002d0 90 6f c4 3d d7 04 01 3e c1 f5 8c 3d 2a a2 32 3d
       0.09591591 0.12599503 0.06882811 0.043611683
0002e0 12 df 31 3d b2 4b 33 3e 86 9e 11 3e 71 fe b1 bc
       0.043425627 0.17509344 0.14220628 -0.021727772
0002f0 da bd 07 bd ed 1f c2 3d 06 03 8a 3d 77 d5 4c 3d
       -0.03314004 0.094787456 0.06738858 0.050008263
000300 50 76 e7 bd b2 5a d4 39 0b b8 35 3d 74 a0 5e bd
       -0.11301863 0.00040503364 0.04436497 -0.05435224
000310 4a 1c e5 3a a3 2a 36 bd cd 8a 34 3e 91 96 74 3e
       0.0017479744 -0.044474255 0.17631073 0.23885562
000320 41 ec 06 be e3 4f c2 bd 15 53 3a 3d 11 64 32 3d
       -0.13176061 -0.094878934 0.04548939 0.043552462
000330 e6 76 c9 ba 56 6d 2d ba c7 17 e3 3c 11 8e cb bc
       -0.0015370518 -0.00066157186 0.027721299 -0.024848016
000340 c5 2d 91 3d 0c 01 a4 3d 83 1e a6 3b 84 b8 d8 3d
       0.07088808 0.08008012 0.0050695552 0.105820686
000350 cc 0a e7 3d a0 cd 43 3e c3 68 78 3e 7a 2a 0a 3e
       0.11281356 0.19121408 0.24258713 0.13492766
000360 0f 04 b4 3d 66 11 50 3c d7 5b 1b 3d 72 cf 50 3e
       0.087898366 0.012699461 0.037929382 0.20391634
000370 fa c6 26 3c de 6e 16 3e ae 5f 86 bd 06 6c b8 3c
       0.010179276 0.1469073 -0.06561218 0.022512447
000380 3e d6 b5 3c 84 c7 0d 3e 71 d4 c1 3d 8e 97 fb 3d
       0.022196885 0.1384564 0.09464348 0.12284766
000390 c1 35 ac bd 4d d1 4f bd 18 6c f4 3d e8 66 ce 3d
       -0.0840869 -0.050736714 0.1193468 0.100782216
0003a0 db 70 d0 3d a5 53 d1 3c 7e cb cf 3c 16 de 40 bc
       0.101777755 0.02555258 0.025365587 -0.011771699
0003b0 6d 67 7f 3d 62 98 49 bc ec e1 92 3d 40 23 2e 3e
       0.062354494 -0.012304397 0.071719974 0.17005634
0003c0 ca 63 02 3e f9 0a 9a 3d c6 79 59 3e 07 7c ba 3d
       0.12733379 0.07521624 0.21237859 0.091056876
0003d0 44 ad aa 3d 0f 5c 18 bd ff df 8d 3d 7d 67 e8 3d
       0.08333829 -0.03719717 0.069274895 0.11347864
0003e0 6c aa 06 3e 9d b4 eb bc c1 8a 07 be 39 6f 25 3d
       0.13150948 -0.028772647 -0.13236524 0.040389273
0003f0 21 ef cd 3d 15 8a 4e 3e 80 d1 6a 3c 72 d0 81 3c
       0.10055376 0.20169862 0.014332175 0.015846465

fc1.bias f4 [64]
000000 c1 a7 a6 3d 88 6c ee 3d 7c e6 62 3d bb f3 96 bd
       0.08137465 0.116417944 0.05539559 -0.07370707
000010 6c 40 38 bd 75 6c 38 3e 60 1d 4e bd 7e ba 59 3e
       -0.044983312 0.18010123 -0.050320983 0.21262547
000020 bb 5d 3b be 3c 80 83 bd 0d 1f db 3c 6c 32 c7 3c
       -0.18297474 -0.06420943 0.026748205 0.024316035
000030 97 b3 b0 3d f7 cc 17 3e fb 73 03 3d 00 ab d5 3d
       0.08628004 0.14824282 0.03209303 0.10433006
000040 db bd 5c 3e 78 93 9f 3c 95 f6 7a 3e f1 72 af bc
       0.21556799 0.019479498 0.24508126 -0.021417113
000050 0c db d2 39 5a bb 2f bc 63 0b 20 3d 37 ad e7 3d
       0.00040217524 -0.01072582 0.03907336 0.11312335
000060 d2 77 bd 3c 96 6c 7e 3d f8 fb da bd 13 4b 79 3c
       0.023128424 0.062115274 -0.106925905 0.015215653
000070 7e e3 5a be 0c 52 33 bc 5f 9a 7d 3d 17 55 a3 3e
       -0.21375844 -0.0109448545 0.061914798 0.31900856
000080 63 ec f7 3d 1a 81 d5 3d c3 d4 21 bd 76 48 e3 3d
       0.12105634 0.10425015 -0.039509546 0.11097805
000090 3e ca fd bc e6 a7 1b 3e 9d 6c 46 bd 2b a1 12 bd
       -0.030980226 0.15200767 -0.048443425 -0.035798233
0000a0 55 c3 36 3d c2 2d b2 3b b0 81 ea bd dd 52 fd 3d
       0.044619877 0.0054375837 -0.11450517 0.123693205
0000b0 6e e3 15 3e 59 ff 87 ba 40 17 e0 3d 49 9b 72 bd
       0.14637539 -0.0010375782 0.109419346 -0.059230123
0000c0 6a 4c 2e 3d be fc 5a 3e e1 27 e8 3d 91 f2 16 3d
       0.042553343 0.21385476 0.11335731 0.036852423
0000d0 5f 73 8d 3d df f1 93 bd ca 01 42 3e b7 db 9e bb
       0.06906771 -0.072238676 0.18945995 -0.0048479694
0000e0 c1 d2 56 bd 20 ae ab 3c 19 cb d1 3d 85 24 07 be
       -0.052447084 0.020957053 0.10243816 -0.13197525
0000f0 de 7f bd bc 3d f9 21 3d 6c 40 b5 3a 21 30 05 be
       -0.02313226 0.039544333 0.0013828403 -0.13006641

fc2.weight f4 [64, 64]
000000 af 53 75 be 53 3e c0 bd df 48 c9 3e 2a 11 e8 bd
       -0.23957704 -0.093868874 0.3931341 -0.11331399
000010 b2 a5 c2 3d 85 25 36 be 16 79 57 3e 07 73 bb 3d
       0.0950426 -0.1778775 0.21042284 0.09152799
000020 4e 2a 62 be 87 66 0d be bd 13 27 3e 83 8f 09 3c
       -0.2208645 -0.13808642 0.16316123 0.008396032
000030 7f 2d 5f 3e 3b 74 bc 3d 0a 18 72 3a 26 d3 ec 3c
       0.21794699 0.09201857 0.00092351495 0.028909277
000040 e5 98 e3 3e 18 26 2e bd 7b 50 35 3e 5c 42 c6 bc
       0.44452587 -0.042516798 0.17706482 -0.024201564
000050 18 a5 11 3d b6 3c 4d be ef dc 9c bb b0 25 c3 be
       0.035557836 -0.2004269 -0.0047870795 -0.3811469
000060 4e e9 0a bc 31 ac f9 3e 0c a6 a9 bd 63 4e 1e be
       -0.008478476 0.48764184 -0.08283624 -0.1545959
000070 ca d5 6c 3d 8c 65 c0 bb 78 00 d6 3d e4 d1 a2 bb
       0.057821073 -0.0058714803 0.10449308 -0.0049688686
000080 ad 1b 66 be 1b fb 0e 3e 50 5a 1c 3e 97 02 99 bb
       -0.22471495 0.13962977 0.15268826 -0.004669498
000090 8f 5f e9 bd 8f 70 5d 3e cd d6 8e 3d 64 0a a5 3d
       -0.113951795 0.21624969 0.06974564 0.080586225
0000a0 03 b4 e7 bd 27 4f bd be 4b 6a 83 be f8 44 90 3e
       -0.113136314 -0.3697445 -0.25667033 0.2817762
0000b0 b8 44 d1 bd 20 16 85 bd 68 e9 50 3e 4a 67 d5 3d
       -0.10218185 -0.06498361 0.20401537 0.104200915
0000c0 65 43 96 bc 19 07 f3 3d a7 92 75 3e 5d 04 2b 3e
       -0.018342683 0.11866588 0.23981725 0.16700883
0000d0 72 32 2c 3c 5a 76 10 3e d5 48 69 3e a4 3c f0 bd
       0.010510074 0.14107648 0.2278169 -0.11730316
0000e0 67 45 65 be 6e 3d b5 3d fb ec 8e 3e 07 6b 9a be
       -0.22389756 0.088496074 0.27915177 -0.3015978
0000f0 b6 0b 82 3d 79 71 94 3d d8 75 e6 bd cf 5b b8 bd
       0.0634989 0.07248206 -0.11252946 -0.09001886
000100 45 ad 99 bd 4d a4 19 be 27 3f 0a 3e ee 46 5e be
       -0.07503752 -0.15004082 0.13500653 -0.21706745
000110 41 c0 56 be d6 88 1b 3d 85 13 7c bd 90 8b 85 bc
       -0.20971777 0.037972294 -0.061542053 -0.0163019
000120 b9 5a 9a ba 94 36 22 be 61 ba 29 bd 85 5a 14 3e
       -0.0011776305 -0.15841132 -0.04143751 0.14487655
000130 c3 d0 07 be b9 c9 9b 3d 63 25 df bc be 2e c7 bc
       -0.1326323 0.07606835 -0.027239507 -0.02431428
000140 b6 e9 de 3d 52 0c ec bd c2 f8 9e 3e 92 5a cd 3c
       0.108844206 -0.115257874 0.31049162 0.025067601
000150 0a 2e 07 be 5a e4 14 be 3d 15 df bd 37 7c d6 bb
       -0.13201156 -0.14540234 -0.10892723 -0.0065455693
000160 c7 f8 88 be 7b de 90 3e 97 43 61 be 5b b5 52 3b
       -0.26752302 0.2829474 -0.2199844 0.0032151553
000170 0f 72 8e be 5d ca 10 3e e8 26 ad 3d 90 00 43 3e
       -0.27821395 0.14139695 0.084546864 0.19043183
000180 75 ff 8d 3d 7b fc 24 3e 41 f3 c3 3d 10 5d a8 3d
       0.0693349 0.16111939 0.095678814 0.08220875
000190 3c 24 0a 3f 78 e7 ea 3d 40 2b 63 be 33 83 aa bb
       0.5396154 0.114699304 -0.22184467 -0.0052036284
0001a0 46 80 00 3f 7c b3 f8 bd a1 19 44 be 2e e6 5c 3e
       0.5019573 -0.12143609 -0.19150402 0.21572182
0001b0 c8 fb 87 3e f9 eb c8 bc 93 f0 1d 3d 0f 3a 11 bc
       0.2655928 -0.024526583 0.038559508 -0.00886394
0001c0 7c 95 7c 3e 32 f2 e3 bd 86 29 d6 bd 0e 04 e3 bc
       0.24666399 -0.111301795 -0.10457139 -0.027711894
0001d0 0b 0b 02 be 3e 92 bc 3e 71 d4 0b 3e c1 f8 18 3e
       -0.12699525 0.36830324 0.13655259 0.14938642
0001e0 9b 67 9a 3d 53 46 eb bd cc 13 0f 3d d1 48 31 3e
       0.075392924 -0.11488023 0.03493099 0.17312934
0001f0 9b 8d 1b be e5 d1 a2 3c 4f 12 7d 3d 47 45 97 be
       -0.15190737 0.019875476 0.06178504 -0.29545042
000200 f8 18 05 be 85 8f 39 3e 5c 57 12 3f c8 b0 8c 3e
       -0.12997806 0.18121155 0.5716455 0.27478623
000210 3d 1d 27 bd d3 2b 05 be bb 9a cd 3d 33 d5 c6 3d
       -0.04079937 -0.13004999 0.10039278 0.09708633
000220 be cc 17 3d 66 ba 84 3e ad 43 3f 3d fc 7f 39 be
       0.03706049 0.2592346 0.0466954 -0.18115228
000230 36 8f 01 3e 7e dc 5f 3e b6 bc 24 be 34 c4 38 3b
       0.12652287 0.21861455 -0.16087613 0.0028193118
000240 5a cc a9 3d 6f 02 15 be e2 15 17 bc ff a7 b0 bd
       0.0829093 -0.1455171 -0.009221526 -0.08625793
000250 2c 1c 52 3e 32 59 a2 3e c6 cf e6 3d 08 74 ab 3d
       0.20518559 0.31708676 0.112700984 0.083717406
000260 fd 78 33 3e 5e 52 33 be 28 58 ab 3d c3 b4 4a bc
       0.17526622 -0.1751189 0.08366424 -0.0123721985
000270 b9 51 4b 3e 16 a7 a0 bd 79 2b 80 bd 0d 8a 27 bd
       0.19855393 -0.07844369 -0.06258292 -0.04090314
000280 d6 d8 27 3e b9 c9 9d 3c f9 c7 2a be 0e 58 42 3d
       0.1639131 0.019261228 -0.16677846 0.047447257
000290 cc 5a bc bd f7 c1 af bd be 10 35 3e af 94 7e be
       -0.09197006 -0.08581918 0.17682168 -0.24861406
0002a0 df 59 16 bd cc e1 81 be f5 ce 28 3e 05 e4 fc bd
       -0.0367068 -0.25367582 0.16485198 -0.12348179
0002b0 6f 87 b0 3e 85 a8 37 3d 40 b9 5a 3d 01 98 87 bd
       0.34478328 0.044838447 0.053399324 -0.06620789
0002c0 22 48 ee 3d ca 81 0d 3e a2 d8 01 3e 94 9c e3 3e
       0.11634852 0.13819042 0.12680295 0.44455397
0002d0 64 50 a9 3b d0 3b be 3d 2b 1b f7 b9 4a bb da bd
       0.005167054 0.09288752 -0.00047131753 -0.10680254
0002e0 05 95 d2 bc ec f3 6b 3e d8 03 54 3e 8e 85 87 3e
       -0.025705824 0.23042268 0.20704591 0.26469082
0002f0 c8 da d6 bc 71 b4 17 3e 8c 43 ad 3d 4b 47 02 3e
       -0.02622737 0.14814927 0.08460149 0.12722509
000300 11 d1 81 bd 4e c8 a7 be 02 12 84 bd 82 16 0b 3e
       -0.063387044 -0.32770008 -0.06448747 0.13582805
000310 b1 36 30 3e 2f d8 23 bc c0 9a 69 bc 8c ce 3d 3e
       0.17208363 -0.010000273 -0.014258087 0.18535823
000320 b5 73 84 bd 54 1b d2 bd a4 5c 4a 3d f1 1c c0 bc
       -0.06467382 -0.10259119 0.049404755 -0.0234513
000330 8e ba 3f 3e b2 ab 58 3e a1 b1 49 3d 1b 7a 04 3d
       0.18723509 0.21159247 0.049241666 0.03234301
000340 0b d9 40 3e d6 ca 25 be f3 77 f1 bd 97 44 8b 3d
       0.18832795 -0.16190657 -0.117904566 0.06800192
000350 92 1e bf bd ad 10 ae 3d c0 6a 27 3e 0c d3 31 be
       -0.09332003 0.084992744 0.16349316 -0.17365664
000360 26 75 90 3e 7a 3e ea bd fd f9 e1 bd 21 ab de 3b
       0.28214377 -0.11437698 -0.110340096 0.0067953025
000370 44 3c 28 3b 56 54 1b bd 89 30 d3 3d 3f 12 37 bd
       0.0025670687 -0.037922226 0.10311992 -0.044695135
000380 93 01 51 3e 64 14 16 3e 42 14 96 be 73 10 9f bd
       0.20410757 0.14656216 -0.2931233 -0.07766809
000390 ed 67 0d bf 6f 6a 04 3e f9 8a 82 bd c7 7c a5 bd
       -0.55236703 0.12931226 -0.06374163 -0.0808044
0003a0 03 23 68 bd 88 83 eb be 5a 35 50 3e 67 be e3 3d
       -0.056674015 -0.45998788 0.20332852 0.11120301
0003b0 5a 99 29 be 5c a6 f3 bd d3 e1 3e bd f1 77 78 3e
       -0.16562405 -0.11896965 -0.04660208 0.24264504
0003c0 8e 7e b8 3d 23 9a e5 bc d8 b7 a9 3e d3 c6 e7 3e
       0.090085134 -0.0280276 0.33148074 0.45268878
0003d0 6a d1 12 3e a5 6a e2 bd e7 00 70 3d 0c ec 18 be
       0.14337698 -0.11055497 0.05859461 -0.14933795
0003e0 cf d6 0d be ab 93 0b bd 00 b6 ba 3e 35 07 e3 bb
       -0.13851474 -0.034076374 0.3646698 -0.0069283494
0003f0 e2 45 2f 3e 5c 4c 62 bd a5 70 2f 3d a5 c3 37 3c
       0.17116502 -0.055248603 0.042832036 0.011216079

fc2.bias f4 [64]
000000 57 f4 a5 3d c6 4c 8d 3e 5f 46 60 3d d4 4f 56 3d
       0.08103245 0.27597636 0.05475461 0.052322224
000010 13 93 a4 bc 08 0b 72 bd 90 9a 32 3e 49 7f 8a 3b
       -0.020089662 -0.05909255 0.17441773 0.0042265994
000020 b9 d1 0c 3d 7c c7 c4 3d c5 2b 9b bd 81 c8 2a be
       0.034379695 0.09608361 -0.07576708 -0.16678049
000030 4a 39 0c bc a8 bf 2b 3e d7 b8 b8 bd ea fa 00 3d
       -0.008558581 0.1677233 -0.090196304 0.03148929
000040 82 2c 7c 3d c3 26 03 3c b9 2f 2b 3e e8 3d 60 3c
       0.061565883 0.008004847 0.16717423 0.013686635
000050 2a a0 42 3e 06 76 4c bc a8 ed 1d be 1c 19 3f 3e
       0.1900641 -0.012479311 -0.1542269 0.18661922
000060 64 43 5b 3d 12 4c 0c be 83 6c 97 bc a5 83 1a bd
       0.053531066 -0.13700894 -0.01848436 -0.037723202
000070 69 68 9d 3d 1d d5 8e bc fc e0 76 bc 8e f6 40 bd
       0.0768593 -0.017435605 -0.015068289 -0.047110133
000080 8e a2 42 3e c3 00 17 bd 95 26 bf 3d c7 f6 60 bd
       0.19007322 -0.03686596 0.09333531 -0.054922845
000090 cb 5a 97 3b 4a b8 b7 3d d8 71 2b 3c e1 cd 1b bd
       0.0046189777 0.08970697 0.010464154 -0.03803814
0000a0 b7 62 1c 3d 2d b1 d7 3d 09 cf 38 3e 11 4a 8c bd
       0.03818008 0.105318405 0.18047728 -0.068500645
0000b0 8c 71 fe 3d 2e 97 1e 3c 23 09 30 bc 0f f5 00 3c
       0.12424001 0.009679599 -0.010744366 0.0078709265
0000c0 33 7e d4 3d 8e d2 82 bc 79 9a 50 3d 6c e4 03 3e
       0.10375633 -0.01596954 0.050928567 0.12880105
0000d0 3c c3 f5 3d b3 81 91 bc ac 80 92 3e e8 43 38 3e
       0.120001286 -0.01776204 0.28613794 0.17994654
0000e0 cb 18 ca 3d 21 37 97 bd 2d b6 4a bd 16 9c 18 be
       0.0986801 -0.07383562 -0.049490143 -0.14903292
0000f0 94 93 62 3e eb f4 35 3e 40 d7 0a 3e c2 c0 14 ba
       0.22126609 0.1776921 0.13558674 -0.0005674475

fc3.weight f4 [10, 64]
000000 62 75 9d be 46 f1 13 bf 1b 44 51 3d df 78 57 bc
       -0.30753618 -0.5779003 0.05109034 -0.0131513765
000010 8d 86 93 3e 9a 95 dc 3d 2c ce 3b 3e 4c 2b 93 bb
       0.28813592 0.10770722 0.18340367 -0.0044912454
000020 69 ea 0a be ce 2d 7a 3e f2 f6 59 be 02 b2 70 3e
       -0.13565983 0.24431536 -0.21285608 0.23505405
000030 c7 b3 98 bd 55 d7 51 be 2c 7b a7 be df 71 c5 be
       -0.07456165 -0.20492299 -0.3271116 -0.3856344
000040 ec 15 6b be 21 dc 9d bb a6 da 88 3a 33 44 27 be
       -0.22957581 -0.004817501 0.0010441139 -0.1633461
000050 89 bb c2 3d 35 31 0f 3e f8 e8 78 3e 88 d4 15 3e
       0.09508426 0.13983615 0.2430762 0.14631855
000060 c6 58 fe be 1c 9a 92 be 35 81 97 be 42 e0 40 be
       -0.49677104 -0.286332 -0.29590765 -0.18835548
000070 e8 7a 1e bd 39 f6 b6 be b5 97 8d be 28 2f 34 be
       -0.03869143 -0.35734728 -0.27654806 -0.17596114
000080 d2 9e ff bd 04 f2 78 3e fc bf 87 be 48 a9 e9 be
       -0.124814644 0.24311072 -0.2651366 -0.45636964
000090 84 0b 1b 3e c9 66 d9 bd 84 59 0e be 95 e7 1e 3e
       0.15141112 -0.10615308 -0.13901335 0.15518029
0000a0 15 9b e6 be 13 e0 85 be ca 4a 77 be 64 3f 19 be
       -0.45040193 -0.26147518 -0.24149624 -0.14965588
0000b0 46 98 21 be ce c7 90 3e e8 eb d3 bd 83 29 68 3e
       -0.15780744 0.2827744 -0.1034773 0.22672085
0000c0 28 50 af bd ee 47 43 bd ea d3 6d 3e 0c 65 28 3d
       -0.085602105 -0.04767602 0.2322537 0.04111199
0000d0 df 37 e8 3d c7 d4 28 bd 96 67 f2 be 3d e2 38 be
       0.113387816 -0.041218545 -0.47344655 -0.18055053
0000e0 bb f0 07 3e 99 c8 4a 3d 4d 4a 6c 3d fe 98 b9 3c
       0.13275425 0.04950771 0.057688046 0.02265596
0000f0 db d2 b4 bd 23 7b 4c 3e 3f 79 21 3e 45 23 02 3e
       -0.0882928 0.19968848 0.15768908 0.12708767
000100 c6 d4 67 3e c4 4f 7a 3e 94 82 2b 3e 2c 08 2e 3e
       0.2263976 0.2444449 0.1674903 0.16995305
000110 68 46 a3 3c f7 ac 5a bb c7 83 ab bd f2 f8 d7 be
       0.019931033 -0.0033367255 -0.08374744 -0.42182118
000120 9b eb 0e 3e 7a 66 99 3d 22 7d 5e bd e0 6f 09 3e
       0.13957064 0.07490249 -0.054318555 0.13421583
000130 6f b8 e9 be 71 48 5c be c6 00 e6 3d 89 ab 03 bc
       -0.45648524 -0.21512009 0.11230616 -0.008036503
000140 29 49 e8 bd 02 98 8a be 02 ba 04 3f 60 44 85 bd
       -0.11342079 -0.27069098 0.51846325 -0.06507182
000150 ea d0 88 be 21 47 5e 3d 91 1f 32 bd 67 3f 82 3c
       -0.2672189 0.054267053 -0.043487135 0.015899373
000160 fb 56 69 3e ef 15 ed bc ca 25 cf 3e ab b1 8e 3e
       0.22787087 -0.028941123 0.40458518 0.27869925
000170 d9 3c d2 bd b5 34 f0 3d 48 f0 3c 3e 0e 38 2e be
       -0.10265512 0.11728803 0.18451035 -0.1701357
000180 4b 1e d5 bb 25 96 43 be cb 14 86 3e f0 c1 43 be
       -0.0065038553 -0.19100244 0.2618774 -0.1911695
000190 d6 01 b8 be 6b 5e ed be a4 70 94 3e 84 8f 2b be
       -0.359389 -0.46361098 0.28992188 -0.16753966
0001a0 e3 29 9d 3e 40 c9 4d 3d 8a cc 5e 3e 0a 1f c4 bd
       0.3069602 0.050240755 0.21757713 -0.09576233
0001b0 78 ca 7a 3d 73 a1 53 be 22 a2 20 be c7 d3 ec bd
       0.061228245 -0.20667057 -0.15686849 -0.11563831
0001c0 af a2 8a 3d 94 85 c2 be ae 7d b1 3e cb 9e 29 be
       0.06769311 -0.37992537 0.34666198 -0.16564481
0001d0 0d 5f d5 3d 23 18 6e 3e 98 eb ae be 47 9d 66 be
       0.1041852 0.23251395 -0.3416412 -0.22520934
0001e0 76 f2 a5 be 8d 3a 3b be 8a 90 e1 bd 3e cf af be
       -0.32411546 -0.18284054 -0.11013897 -0.343378
0001f0 29 d6 96 be 7f 1e 2d bd 8c be b7 be 0b 73 94 be
       -0.29460266 -0.04226541 -0.35887563 -0.2899402
000200 65 f9 25 be b5 76 2f be 5f 8e d7 3c 7c 57 0a 3e
       -0.16208418 -0.17135127 0.026313005 0.13509935
000210 c7 39 21 3e a2 fa 61 be a1 2e a6 3d 0e 41 8c be
       0.15744697 -0.22068265 0.081143625 -0.27393383
000220 a0 36 ab bd 5a d7 f9 3d c7 50 77 bb 73 62 76 be
       -0.08360028 0.12199278 -0.0037737356 -0.24060993
000230 f8 84 5d be 93 f0 3c 3e 66 05 38 3e 60 db c4 3e
       -0.21632755 0.18451147 0.1797081 0.3844862
000240 70 f3 de 3c 54 46 c6 3d 36 92 7a 3d 3d d1 67 3d
       0.02721569 0.09681383 0.061174594 0.05659603
000250 90 9a fc be 36 05 36 3e 1e 94 89 3c 90 37 81 3e
       -0.49336672 0.17775425 0.01679426 0.25237703
000260 22 fa 84 be 20 ff 48 3d d7 a8 0c 3d 2e a6 5f 3e
       -0.25972086 0.04907143 0.034340706 0.21840736
000270 93 78 06 bd 0b 03 51 3c a7 f5 32 be d1 36 ee be
       -0.032829832 0.012757073 -0.17476521 -0.46526197
000280 a8 94 7b bd bd 13 73 bd 05 a0 4e 3e 3f a6 10 3e
       -0.061421067 -0.059344996 0.2017823 0.14125918
000290 cb 1e 32 be 56 8b d5 3e a8 bb 5e be c9 63 21 3e
       -0.17394559 0.41707867 -0.21751273 0.15760721
0002a0 16 ec 76 3d c7 ff b2 be 20 c6 11 3e 8e 5d 1d 3e
       0.060283743 -0.34960768 0.14235735 0.1536772
0002b0 ab f3 95 be eb 58 0a 3e a0 bd be bc 2a 99 34 bd
       -0.29287466 0.13510482 -0.02328378 -0.04409138
0002c0 6d a3 0b be c9 2b 60 3e c1 89 a1 be d7 27 b8 bd
       -0.1363656 0.21891703 -0.3155041 -0.08991974
0002d0 2e 87 7d be 4b e2 52 3d 9a 66 a9 3d dc 82 b2 be
       -0.24758598 0.05148534 0.08271523 -0.34865463
0002e0 4c e3 81 be e3 92 0d 3e 14 9c 34 3e ae 97 aa be
       -0.25368726 0.13825564 0.17637664 -0.33318847
0002f0 ca 65 80 3e 01 15 53 be c6 92 f6 3d f7 8d 43 be
       0.2507766 -0.20613481 0.120397136 -0.19097124
000300 03 da e5 be f5 b5 1c bd 93 9f 01 3e 1a 11 c0 be
       -0.44892892 -0.038259465 0.12658529 -0.37513047
000310 4b f7 0f be 9b 9f 31 be d1 37 ac be bc 94 4b 3e
       -0.14059179 -0.17346041 -0.33636335 0.19880956
000320 03 f5 d5 3d 8b 7c 4b 3e b4 1a c3 bd 9c e3 91 be
       0.10447123 0.19871728 -0.095265776 -0.28493965
000330 39 db ab 3d ce bd b9 bd 43 4a 7d 3e 60 a7 05 3e
       0.08391423 -0.090694055 0.2473536 0.1305213
000340 e4 69 00 3e 46 be 76 3e 60 92 4a be 4d ce 71 3d
       0.12540394 0.24096021 -0.197824 0.059034634
000350 a7 14 36 be 96 53 0b 3e bf 9f bc 3d e8 79 5c be
       -0.17781316 0.13606104 0.09210157 -0.21530879
000360 d9 8d 12 3e be 02 08 be 01 f6 cd bd 54 66 af be
       0.14311923 -0.13282296 -0.10056687 -0.34257758
000370 43 e9 a9 bd a3 78 f7 bd a8 64 af 3e c3 42 59 3e
       -0.08296444 -0.120835565 0.34256482 0.21216874
000380 88 cc 66 3e cc de d8 bd 0e 6d 8c be 1b 3b 87 3e
       0.2253896 -0.1058937 -0.27426952 0.2641228
000390 4a 60 a4 3d 31 9a ec bd ac 10 48 3e 37 b4 33 3e
       0.08026178 -0.11552847 0.1953761 0.17549215
0003a0 0d c8 94 3d 36 bc 03 be 02 b0 24 be a6 b1 0a be
       0.07264719 -0.12864766 -0.16082767 -0.1354433
0003b0 75 84 bd be c0 a4 8d bd d5 5c 9f bd 43 89 c7 bd
       -0.3701512 -0.06916189 -0.07781378 -0.097429775
0003c0 3d 16 5d 3e 5b e2 8a 3e 83 3f f9 be 4d 5c 4b be
       0.21590514 0.2712582 -0.48681268 -0.19859429
0003d0 5b cb af 3d af b9 57 3d c7 48 c0 bd d5 30 e9 bd
       0.08583709 0.052667316 -0.09388881 -0.11386267
0003e0 c1 07 5d be cd a9 a0 3b 01 bc 9a bd b9 1a 9c 3d
       -0.21584989 0.0049030543 -0.0755539 0.076222844
0003f0 b5 0e a2 bd 4d 13 58 be 5f ad 42 be 62 0d 0e be
       -0.079129614 -0.21101113 -0.19011448 -0.13872293

fc3.bias f4 [10]
000000 57 c3 03 bb 57 c1 36 bd cf d9 0a 3e 67 c6 65 bd
       -0.0020105445 -0.044617977 0.1355965 -0.056097414
000010 a6 75 00 be 9c e3 11 3e 20 9f 38 be 2b 3a 29 be
       -0.1254488 0.14246982 -0.18029451 -0.16526096
000020 9f 0d 1b 3e 9c c5 bc 3d
       0.15141915 0.092173785
